…
ntclouds=4, num_steps=200, num_val_batches=-1, random_input_layer=False, residual=True, resume=None, rotate=False, scale_mode='shape_unit', sched_end_epoch=300000, sched_mode='linear', sched_start_epoch=150000, seed=42, tag=None, train_batch_size=32, train_mode='train_ae_DGCNN_layers', val_batch_size=32, val_freq=2000, weight_decay=0)
[2023-04-11 06:10:10,197::train::INFO] Transform: None
[2023-04-11 06:10:10,198::train::INFO] Loading datasets...
[2023-04-11 06:11:08,101::train::INFO] Building model...
[2023-04-11 06:11:08,124::train::INFO] AutoEncoder(
  (encoder): PointNetEncoder(
    (conv1): Conv1d(64, 128, kernel_size=(1,), stride=(1,))
    (conv2): Conv1d(128, 128, kernel_size=(1,), stride=(1,))
    (conv3): Conv1d(128, 256, kernel_size=(1,), stride=(1,))
    (conv4): Conv1d(256, 512, kernel_size=(1,), stride=(1,))
    (bn1): BatchNorm1d(128, eps=1e-05, momentum=0.1, affine=True, track_running_stats=True)
    (bn2): BatchNorm1d(128, eps=1e-05, momentum=0.1, affine=True, track_running_stats=True)
    (bn3): BatchNorm1d(256, eps=1e-05, momentum=0.1, affine=True, track_running_stats=True)
    (bn4): BatchNorm1d(512, eps=1e-05, momentum=0.1, affine=True, track_running_stats=True)
    (fc1_m): Linear(in_features=512, out_features=256, bias=True)
    (fc2_m): Linear(in_features=256, out_features=128, bias=True)
    (fc3_m): Linear(in_features=128, out_features=512, bias=True)
    (fc_bn1_m): BatchNorm1d(256, eps=1e-05, momentum=0.1, affine=True, track_running_stats=True)
    (fc_bn2_m): BatchNorm1d(128, eps=1e-05, momentum=0.1, affine=True, track_running_stats=True)
    (fc1_v): Linear(in_features=512, out_features=256, bias=True)
    (fc2_v): Linear(in_features=256, out_features=128, bias=True)
    (fc3_v): Linear(in_features=128, out_features=512, bias=True)
    (fc_bn1_v): BatchNorm1d(256, eps=1e-05, momentum=0.1, affine=True, track_running_stats=True)
    (fc_bn2_v): BatchNorm1d(128, eps=1e-05, momentum=0.1, affine=True, track_running_stats=True)
  )
  (diffusion): DiffusionPoint(
    (net): PointwiseNet(
      (layers): ModuleList(
        (0): ConcatSquashLinear(
          (_layer): Linear(in_features=64, out_features=128, bias=True)
          (_hyper_bias): Linear(in_features=520, out_features=128, bias=False)
          (_hyper_gate): Linear(in_features=520, out_features=128, bias=True)
        )
        (1): ConcatSquashLinear(
          (_layer): Linear(in_features=128, out_features=256, bias=True)
          (_hyper_bias): Linear(in_features=520, out_features=256, bias=False)
          (_hyper_gate): Linear(in_features=520, out_features=256, bias=True)
        )
        (2): ConcatSquashLinear(
          (_layer): Linear(in_features=256, out_features=512, bias=True)
          (_hyper_bias): Linear(in_features=520, out_features=512, bias=False)
          (_hyper_gate): Linear(in_features=520, out_features=512, bias=True)
        )
        (3): ConcatSquashLinear(
          (_layer): Linear(in_features=512, out_features=256, bias=True)
          (_hyper_bias): Linear(in_features=520, out_features=256, bias=False)
          (_hyper_gate): Linear(in_features=520, out_features=256, bias=True)
        )
        (4): ConcatSquashLinear(
          (_layer): Linear(in_features=256, out_features=128, bias=True)
          (_hyper_bias): Linear(in_features=520, out_features=128, bias=False)
          (_hyper_gate): Linear(in_features=520, out_features=128, bias=True)
        )
        (5): ConcatSquashLinear(
          (_layer): Linear(in_features=128, out_features=64, bias=True)
          (_hyper_bias): Linear(in_features=520, out_features=64, bias=False)
          (_hyper_gate): Linear(in_features=520, out_features=64, bias=True)
        )
      )
    )
    (var_sched): VarianceSchedule()
  )
)
[2023-04-11 06:11:08,125::train::INFO] Start training...
[2023-04-11 06:11:09,334::train::INFO] [Train] Iter 0001 | Loss 0.583666 | Grad 0.7414 
[2023-04-11 06:11:09,403::train::INFO] [Train] Iter 0002 | Loss 0.475338 | Grad 0.6134 
[2023-04-11 06:11:09,470::train::INFO] [Train] Iter 0003 | Loss 0.740207 | Grad 0.5293 
…
