…
ing=True, lr=0.002, max_grad_norm=10, max_iters=inf, model='flow', num_samples=4, num_steps=100, residual=True, sample_num_points=2048, scale_mode='shape_unit', sched_end_epoch=400000, sched_mode='linear', sched_start_epoch=200000, seed=2020, spectral_norm=False, tag=None, test_freq=30000, test_size=400, train_batch_size=128, truncate_std=2.0, val_batch_size=64, val_freq=1000, weight_decay=0)
[2023-04-05 15:30:27,562::train::INFO] Loading datasets...
[2023-04-05 15:30:28,342::train::INFO] Building model...
[2023-04-05 15:30:30,857::train::INFO] FlowVAE(
  (encoder): PointNetEncoder(
    (conv1): Conv1d(3, 128, kernel_size=(1,), stride=(1,))
    (conv2): Conv1d(128, 128, kernel_size=(1,), stride=(1,))
    (conv3): Conv1d(128, 256, kernel_size=(1,), stride=(1,))
    (conv4): Conv1d(256, 512, kernel_size=(1,), stride=(1,))
    (bn1): BatchNorm1d(128, eps=1e-05, momentum=0.1, affine=True, track_running_stats=True)
    (bn2): BatchNorm1d(128, eps=1e-05, momentum=0.1, affine=True, track_running_stats=True)
    (bn3): BatchNorm1d(256, eps=1e-05, momentum=0.1, affine=True, track_running_stats=True)
    (bn4): BatchNorm1d(512, eps=1e-05, momentum=0.1, affine=True, track_running_stats=True)
    (fc1_m): Linear(in_features=512, out_features=256, bias=True)
    (fc2_m): Linear(in_features=256, out_features=128, bias=True)
    (fc3_m): Linear(in_features=128, out_features=256, bias=True)
    (fc_bn1_m): BatchNorm1d(256, eps=1e-05, momentum=0.1, affine=True, track_running_stats=True)
    (fc_bn2_m): BatchNorm1d(128, eps=1e-05, momentum=0.1, affine=True, track_running_stats=True)
    (fc1_v): Linear(in_features=512, out_features=256, bias=True)
    (fc2_v): Linear(in_features=256, out_features=128, bias=True)
    (fc3_v): Linear(in_features=128, out_features=256, bias=True)
    (fc_bn1_v): BatchNorm1d(256, eps=1e-05, momentum=0.1, affine=True, track_running_stats=True)
    (fc_bn2_v): BatchNorm1d(128, eps=1e-05, momentum=0.1, affine=True, track_running_stats=True)
  )
  (flow): SequentialFlow(
    (chain): ModuleList(
      (0): CouplingLayer(
        (net_s_t): Sequential(
          (0): Linear(in_features=128, out_features=256, bias=True)
          (1): ReLU(inplace=True)
          (2): Linear(in_features=256, out_features=256, bias=True)
          (3): ReLU(inplace=True)
          (4): Linear(in_features=256, out_features=256, bias=True)
        )
      )
      (1): CouplingLayer(
        (net_s_t): Sequential(
          (0): Linear(in_features=128, out_features=256, bias=True)
          (1): ReLU(inplace=True)
          (2): Linear(in_features=256, out_features=256, bias=True)
          (3): ReLU(inplace=True)
          (4): Linear(in_features=256, out_features=256, bias=True)
        )
      )
      (2): CouplingLayer(
        (net_s_t): Sequential(
          (0): Linear(in_features=128, out_features=256, bias=True)
          (1): ReLU(inplace=True)
          (2): Linear(in_features=256, out_features=256, bias=True)
          (3): ReLU(inplace=True)
          (4): Linear(in_features=256, out_features=256, bias=True)
        )
      )
      (3): CouplingLayer(
        (net_s_t): Sequential(
          (0): Linear(in_features=128, out_features=256, bias=True)
          (1): ReLU(inplace=True)
          (2): Linear(in_features=256, out_features=256, bias=True)
          (3): ReLU(inplace=True)
          (4): Linear(in_features=256, out_features=256, bias=True)
        )
      )
      (4): CouplingLayer(
        (net_s_t): Sequential(
          (0): Linear(in_features=128, out_features=256, bias=True)
          (1): ReLU(inplace=True)
          (2): Linear(in_features=256, out_features=256, bias=True)
          (3): ReLU(inplace=True)
          (4): Linear(in_features=256, out_features=256, bias=True)
        )
      )
      (5): CouplingLayer(
        (net_s_t): Sequential(
          (0): Linear(in_features=128, out_features=256, bias=True)
          (1): ReLU(inplace=True)
          (2): Linear(in_features=256, out_features=256, bias=True)
          (3): ReLU(inplace=True)
          (4): Linear(in_features=256, out_features=256, bias=True)
        )
      )
      (6): CouplingLayer(
        (net_s_t): Sequential(
          (0): Linear(in_features=128, out_features=256, bias=True)
          (1): ReLU(inplace=True)
          (2): Linear(in_features=256, out_features=256, bias=True)
          (3): ReLU(inplace=True)
          (4): Linear(in_features=256, out_features=256, bias=True)
        )
      )
      (7): CouplingLayer(
        (net_s_t): Sequential(
          (0): Linear(in_features=128, out_features=256, bias=True)
          (1): ReLU(inplace=True)
          (2): Linear(in_features=256, out_features=256, bias=True)
          (3): ReLU(inplace=True)
          (4): Linear(in_features=256, out_features=256, bias=True)
        )
      )
      (8): CouplingLayer(
        (net_s_t): Sequential(
          (0): Linear(in_features=128, out_features=256, bias=True)
          (1): ReLU(inplace=True)
          (2): Linear(in_features=256, out_features=256, bias=True)
          (3): ReLU(inplace=True)
          (4): Linear(in_features=256, out_features=256, bias=True)
        )
      )
      (9): CouplingLayer(
        (net_s_t): Sequential(
          (0): Linear(in_features=128, out_features=256, bias=True)
          (1): ReLU(inplace=True)
          (2): Linear(in_features=256, out_features=256, bias=True)
          (3): ReLU(inplace=True)
          (4): Linear(in_features=256, out_features=256, bias=True)
        )
      )
      (10): CouplingLayer(
        (net_s_t): Sequential(
          (0): Linear(in_features=128, out_features=256, bias=True)
          (1): ReLU(inplace=True)
          (2): Linear(in_features=256, out_features=256, bias=True)
          (3): ReLU(inplace=True)
          (4): Linear(in_features=256, out_features=256, bias=True)
        )
      )
      (11): CouplingLayer(
        (net_s_t): Sequential(
          (0): Linear(in_features=128, out_features=256, bias=True)
          (1): ReLU(inplace=True)
          (2): Linear(in_features=256, out_features=256, bias=True)
          (3): ReLU(inplace=True)
          (4): Linear(in_features=256, out_features=256, bias=True)
        )
      )
      (12): CouplingLayer(
        (net_s_t): Sequential(
          (0): Linear(in_features=128, out_features=256, bias=True)
          (1): ReLU(inplace=True)
          (2): Linear(in_features=256, out_features=256, bias=True)
          (3): ReLU(inplace=True)
          (4): Linear(in_features=256, out_features=256, bias=True)
        )
      )
      (13): CouplingLayer(
        (net_s_t): Sequential(
          (0): Linear(in_features=128, out_features=256, bias=True)
          (1): ReLU(inplace=True)
          (2): Linear(in_features=256, out_features=256, bias=True)
          (3): ReLU(inplace=True)
          (4): Linear(in_features=256, out_features=256, bias=True)
        )
      )
    )
  )
  (diffusion): DiffusionPoint(
    (net): PointwiseNet(
      (layers): ModuleList(
        (0): ConcatSquashLinear(
          (_layer): Linear(in_features=3, out_features=128, bias=True)
          (_hyper_bias): Linear(in_features=259, out_features=128, bias=False)
          (_hyper_gate): Linear(in_features=259, out_features=128, bias=True)
        )
        (1): ConcatSquashLinear(
          (_layer): Linear(in_features=128, out_features=256, bias=True)
          (_hyper_bias): Linear(in_features=259, out_features=256, bias=False)
          (_hyper_gate): Linear(in_features=259, out_features=256, bias=True)
        )
        (2): ConcatSquashLinear(
          (_layer): Linear(in_features=256, out_features=512, bias=True)
          (_hyper_bias): Linear(in_features=259, out_features=512, bias=False)
          (_hyper_gate): Linear(in_features=259, out_features=512, bias=True)
        )
        (3): ConcatSquashLinear(
          (_layer): Linear(in_features=512, out_features=256, bias=True)
          (_hyper_bias): Linear(in_features=259, out_features=256, bias=False)
          (_hyper_gate): Linear(in_features=259, out_features=256, bias=True)
        )
        (4): ConcatSquashLinear(
          (_layer): Linear(in_features=256, out_features=128, bias=True)
          (_hyper_bias): Linear(in_features=259, out_features=128, bias=False)
          (_hyper_gate): Linear(in_features=259, out_features=128, bias=True)
        )
        (5): ConcatSquashLinear(
          (_layer): Linear(in_features=128, out_features=3, bias=True)
          (_hyper_bias): Linear(in_features=259, out_features=3, bias=False)
          (_hyper_gate): Linear(in_features=259, out_features=3, bias=True)
        )
      )
    )
    (var_sched): VarianceSchedule()
  )
)
[2023-04-05 15:30:30,858::train::INFO] Start training...
[2023-04-05 15:30:33,734::train::INFO] [Train] Iter 0001 | Loss 61.608116 | Grad 3.7477 | KLWeight 0.0010
[2023-04-05 15:30:33,871::train::INFO] [Train] Iter 0002 | Loss 61.707367 | Grad 3.7796 | KLWeight 0.0010
[2023-04-05 15:30:34,006::train::INFO] [Train] Iter 0003 | Loss 61.562263 | Grad 2.4302 | KLWeight 0.0010
…
